Overriding model.yaml nc=80 with nc=10
                 from  n    params  module                                  arguments
  0                -1  1       928  models.common.conv_bn_relu_maxpool      [3, 32]
  1                -1  1      8812  models.common.Shuffle_Block             [32, 120, 2]
  2                -1  3     24300  models.common.Shuffle_Block             [120, 120, 1]
  3                -1  1     44588  models.common.Shuffle_Block             [120, 232, 2]
  4                -1  7    200564  models.common.Shuffle_Block             [232, 232, 1]
  5                -1  1    167968  models.common.Shuffle_Block             [232, 464, 2]
  6                -1  3    333384  models.common.Shuffle_Block             [464, 464, 1]
  7                -1  1     59648  models.common.Conv                      [464, 128, 1, 1]
  8                -1  1         0  torch.nn.modules.upsampling.Upsample    [None, 2, 'nearest']
  9           [-1, 4]  1         0  models.common.Concat                    [1]
 10                -1  1    104192  models.common.C3                        [360, 128, 1, False]
 11                -1  1      8320  models.common.Conv                      [128, 64, 1, 1]
 12                -1  1         0  torch.nn.modules.upsampling.Upsample    [None, 2, 'nearest']
 13           [-1, 2]  1         0  models.common.Concat                    [1]
 14                -1  1     26496  models.common.C3                        [184, 64, 1, False]
 15                -1  1     36992  models.common.Conv                      [64, 64, 3, 2]
 16          [-1, 11]  1         0  models.common.Concat                    [1]
 17                -1  1     74496  models.common.C3                        [128, 128, 1, False]
 18                -1  1    147712  models.common.Conv                      [128, 128, 3, 2]
 19           [-1, 7]  1         0  models.common.Concat                    [1]
 20                -1  1    296448  models.common.C3                        [256, 256, 1, False]
 21      [14, 17, 20]  1     20295  models.yolo.Detect                      [10, [[10, 13, 16, 30, 33, 23], [30, 61, 62, 45, 59, 119], [116, 90, 156, 198, 373, 326]], [64, 128, 256]]
Model Summary: 308 layers, 1555143 parameters, 1555143 gradients
Transferred 474/482 items from weights/v5lite-s.pt
Scaled weight_decay = 0.0005
Optimizer groups: 82 .bias, 82 conv.weight, 79 other
…
